This is a log file of input/output vars of each cell.
cell [3] OUT, use_cuda, False, <class 'bool'>
cell [3] OUT, pretrained_model, ../data/lenet_mnist_model.pth, <class 'str'>
cell [3] OUT, epsilons, (7,), float64
cell [4] IN, use_cuda, False, <class 'bool'>
cell [4] IN, pretrained_model, ../data/lenet_mnist_model.pth, <class 'str'>
cell [4] OUT, device, cpu, <class 'torch.device'>
cell [4] OUT, model, Net(
  (conv1): Conv2d(1, 10, kernel_size=(5, 5), stride=(1, 1))
  (conv2): Conv2d(10, 20, kernel_size=(5, 5), stride=(1, 1))
  (conv2_drop): Dropout2d(p=0.5)
  (fc1): Linear(in_features=320, out_features=50, bias=True)
  (fc2): Linear(in_features=50, out_features=10, bias=True)
), <class '__main__.Net'>
cell [4] OUT, test_loader, <torch.utils.data.dataloader.DataLoader object at 0x00000218FD6BD048>, <class 'torch.utils.data.dataloader.DataLoader'>
cell [6] IN, device, cpu, <class 'torch.device'>
cell [6] IN, model, Net(
  (conv1): Conv2d(1, 10, kernel_size=(5, 5), stride=(1, 1))
  (conv2): Conv2d(10, 20, kernel_size=(5, 5), stride=(1, 1))
  (conv2_drop): Dropout2d(p=0.5)
  (fc1): Linear(in_features=320, out_features=50, bias=True)
  (fc2): Linear(in_features=50, out_features=10, bias=True)
), <class '__main__.Net'>
cell [7] IN, epsilons, (7,), float64
cell [7] IN, model, Net(
  (conv1): Conv2d(1, 10, kernel_size=(5, 5), stride=(1, 1))
  (conv2): Conv2d(10, 20, kernel_size=(5, 5), stride=(1, 1))
  (conv2_drop): Dropout2d(p=0.5)
  (fc1): Linear(in_features=320, out_features=50, bias=True)
  (fc2): Linear(in_features=50, out_features=10, bias=True)
), <class '__main__.Net'>
cell [7] IN, device, cpu, <class 'torch.device'>
cell [7] IN, test_loader, <torch.utils.data.dataloader.DataLoader object at 0x00000218FD6BD048>, <class 'torch.utils.data.dataloader.DataLoader'>
cell [7] OUT, accuracies, (7,), float64
cell [7] OUT, examples, (7, 5, 3), object
cell [8] IN, epsilons, (7,), float64
cell [8] IN, accuracies, (7,), float64
…
